resources/actuator_nets/unitree_go2_sim.pt (torch, 16840 bytes, 5 tensors)

weight f4 [32, 6]
00000000: ee6f e83f b763 5540 3a85 4cc0 e35c f8be
00000010: 4e36 8ebe f246 abbd cf23 0ac0 c9da 973f
00000020: 1e99 a33f c885 bd3e ae41 d23e 1d6a d23e
00000030: f82a 593f 819e f13f a103 d8bf d5dd 1640
00000040: a2f0 1440 b1b6 0f40 2b47 9a3f e379 39bf
00000050: 14ff 923e 3a12 9bbf 3d8a 96bf 8ecf 1abf
00000060: b8c9 bebe 6a61 3040 1419 a43f bdaa de3d
00000070: fbe2 dfbd 403e 973e b665 533e 32ca 1cbf
00000080: c0bd fd3d f2b5 5f40 83ea 5540 9e26 3940
00000090: 1059 09c0 571b 3dbe 13b2 4c40 f244 e43e
000000a0: 43f5 d43e 0946 a73e 1fe5 95c0 3c1b 7d3f
000000b0: 629e 753f 1d7b 6abd 347d e7be 7dd1 b7ba
000000c0: 563a b5be dc91 ae40 e9fe 8fc0 bafc 93be
000000d0: ba46 b1bd bf79 cf3e 358e d93f 10ba 1240
000000e0: c07f 50c0 b57e 2a40 1872 2440 77a0 1d40
000000f0: c0d5 5940 b558 75c0 9e5c 7dbf 5138 be3c
00000100: e52b 8fbd fd1b 2c3e bcff ff3e 4263 03be
00000110: 6790 5dbf c008 64c0 de5f 78c0 4229 79c0
00000120: e3dd 8cbf 9128 a23f 3b06 50c0 1fbd 0a3e
00000130: 3174 16be c208 ba3e 3535 51bc f9d4 8b3e
00000140: edb9 82bf 5b9c a33f 5fad d03f cbcf ad3f
00000150: 4d84 5dc0 f1a8 aa3e d195 42c0 a87e 083f
00000160: c36b de3d 3e68 2cbd d417 1fc0 ff1c 063f
00000170: 6b87 05c0 a961 313f 3cb4 ee3e 1c11 49be
00000180: 4b07 273e 5013 ff3e 0e01 8b3e f3a5 6ebf
00000190: c7df 8cbf 67b5 76bf b7ab 71c0 3023 0740
000001a0: d662 2940 fed2 503e caff a5bd 5ca4 c4be
000001b0: dd77 9840 6ce9 fdbf f774 6cbf 58df 903e
000001c0: ff0d 5b3f 05e6 743f 7a29 afbf 9551 a03f
000001d0: f675 26bf 1e04 74c0 91f1 76c0 5d07 6dc0
000001e0: 5a85 1840 cf74 8d40 47c4 30c0 100a 00bf
000001f0: 1ece e1be 9bbb cf3d 5ddd e2be 7021 13c0
00000200: a50e b8bf fa3e 773e afd6 9bbc b1f5 003d
00000210: e660 b2bf 4d6d 0340 4620 22c0 0585 24be
00000220: 5697 e03e 432d 923e 6682 40bf 0fec a8bf
00000230: 7fe7 2cc0 25c1 983e f443 e33e 9e0d e53e
00000240: 4866 11c0 642b e73f 25a4 bf3d 44ee 623e
00000250: fec3 a13e c64a a2be 859d 5340 f92f 4bc0
00000260: a5cb ee3f 1ee5 0dbf ae5e 88be f54c 653e
00000270: a91d 84bf c373 f3bf c7f3 0c40 9d8c cabd
00000280: 7131 a93e 361d 5cbe 3038 51c0 4a9d 59c0
00000290: 7552 2040 768d a53d 82a1 83be 21be 053e
000002a0: 3e49 26c0 f88a fe3f 6d72 53c0 1b55 17be
000002b0: dd9b 9bbd e2f1 153e 4772 5240 41da 84bf
000002c0: b73b 3cc0 9dc2 683e 9a15 e9bd 70c2 18be
000002d0: 407b 6040 26c8 c23e 2298 4b3e 0255 b13b
000002e0: c8d2 a73e 3187 093f aef3 da3f 118d d0bf
000002f0: 1f10 783f ef6e f7be b80b aebd 742b 7c3e
1.8159158 3.334211 -3.1956315 -0.48508367 -0.27775806 -0.08363141 -2.1584356 1.1863643
1.2781103 0.3701613 0.41065735 0.41096583 0.8483119 1.8876497 -1.6876107 2.3572896
2.327187 2.2455256 1.2052969 -0.7245161 0.28710234 -1.2114937 -1.1760937 -0.60472953
-0.37263274 2.7559457 1.2820153 0.108724095 -0.10931965 0.2953968 0.20644268 -0.61246026
0.123897076 3.49548 3.3424385 2.892982 -2.146061 -0.1846746 3.1983688 0.4458385
0.4159337 0.3267062 -4.684219 0.9886968 0.959448 -0.057246316 -0.4521271 -0.0014024224
-0.3539607 5.455305 -4.499867 -0.28903753 -0.08656068 0.40522572 1.6996523 2.2926064
-3.2577972 2.6639836 2.5694637 2.462919 3.4036713 -3.8335392 -0.9896945 0.023220213
-0.06990794 0.16807552 0.49999797 -0.12830833 -0.86548465 -3.563034 -3.8808513 -3.8931432
-1.1005214 1.266863 -3.2503803 0.13548706 -0.14692761 0.36334807 -0.012769033 0.27310923
-1.021299 1.2782091 1.6302909 1.3579038 -3.4612 0.33332017 -3.040394 0.5331826
0.10860398 -0.0420916 -2.4858294 0.52387995 -2.0863903 0.6928964 0.46621883 -0.19635433
0.16311376 0.49819422 0.27149242 -0.9322197 -1.1005791 -0.9637055 -3.7761056 2.1115227
2.6466575 0.20392987 -0.081054285 -0.38406646 4.7646317 -1.983686 -0.92365974 0.28295398
0.8556823 0.9566348 -1.3684533 1.2524897 -0.65023744 -3.8127513 -3.858494 -3.7035744
2.3831391 4.420509 -2.7619798 -0.50015354 -0.44102567 0.10143205 -0.44309512 -2.2989159
-1.4379469 0.24145117 -0.019023268 0.03148431 -1.3935821 2.0535462 -2.5332198 -0.16066368
0.4386546 0.28550157 -0.7519897 -1.3197039 -2.7016294 0.29834858 0.44387782 0.44736952
-2.2718678 1.8060117 0.0935748 0.22161204 0.31594843 -0.31697673 3.3064892 -3.174803
1.8655897 -0.5542773 -0.26634735 0.22392638 -1.0321552 -1.9019703 2.202379 -0.09890101
0.33045533 -0.21495518 -3.2690544 -3.4002252 2.5050328 0.08083622 -0.25709158 0.1306081
-2.5982203 1.988616 -3.303859 -0.14778559 -0.07598088 0.14643052 3.288225 -1.0379106
-2.9411447 0.22730489 -0.11381073 -0.14917922 3.5075226 0.38043326 0.19882253 0.005411745
0.32778 0.5372191 1.7105615 -1.629305 0.968996 -0.48326823 -0.08498329 0.24625951

bias f4 [32]
00000000: 4261 f3bf c722 ed3f 02c8 2a40 0e44 4340
00000010: 33f3 02c0 e025 aec0 fc1d 0040 f90f a2bf
00000020: 4644 323f e158 1a40 175d 78bf a25c c9bf
00000030: ea84 92bf fd25 2ac0 d6c8 b0be c163 893f
00000040: 8528 9d3f 86a5 85bf 4354 b0bf f36f 0540
00000050: dee3 e6bf 0e65 a43f 5dde 0740 6f0f d03f
00000060: dd21 383f 9079 823f 3c49 f0bf 4bd9 1040
00000070: f302 c5bf 5c08 383f 7687 aebf 0918 babf
-1.9014056 1.8526238 2.6684575 3.0510287 -2.0460937 -5.4421234 2.00183 -1.2661124
0.69635427 2.4116747 -0.97017044 -1.5731394 -1.1446812 -2.6585686 -0.34528226 1.0733567
1.227799 -1.0441139 -1.3775715 2.0849578 -1.803829 1.284334 2.122947 1.625471
0.7192667 1.0193348 -1.8772349 2.2632625 -1.5391525 0.71887755 -1.3635089 -1.4538585

weight f4 [32, 32]
00000000: caea 2f40 4825 f9be bf5b 9a3f c0b8 3a3f
00000010: 20b0 99bf 3627 b3bf a4a7 cbbe 3576 05bf
00000020: 3d78 70c0 a35b 633f a353 953f 2584 103d
00000030: fa95 e9bc ddbb 873f 2897 9e3f 901e 7e3d
00000040: ac1c 09bf 96e1 1dc0 4386 953f 2f04 6e3f
00000050: 8e77 c53f 6db0 fa3e 59d4 1bc0 2306 81bf
00000060: d580 bfbf 963c 1640 4003 143f 1c20 6f3f
00000070: aa6f e7bc 1e5d 923f 470f 93bf 38c4 2a3f
00000080: 20ec 0940 6683 63be d5e3 d4bf 4e03 d5be
00000090: c8bf 40bf b767 e6bf 0639 debf 610f 89bf
000000a0: 899b f03e 7bd1 e9bf 2d6e 3abf c1e8 af3e
000000b0: 2abb 80bf a24d b5be 4e3d bebf f7c0 46be
000000c0: 47f8 84bd 75b8 863e 4b1b 5abe 035b c2bf
000000d0: cb3c 323f d63c a5bf 4793 a9be 6adc 2fbe
000000e0: c14f a63f d063 4abf b9c2 b83e 1156 25bf
000000f0: f912 7cbf e637 963f 8520 f9bf c8fe 413e
00000100: 0cb7 01c0 fca9 f13e 8c2b 9e3f 7ed8 953e
00000110: 7823 0bbf ffbd ccbf 0450 453f 0af6 c4be
00000120: f045 c4bf 8aeb a43f ba1b c53d 7de9 283c
00000130: d8fe aebf 388e b9be 1345 a7bf 63fa 2e3f
00000140: a92e 15bf 73d8 6c3f f53e f13e f527 303f
00000150: 4661 11c0 ae35 84bf 40de 863e 8516 973f
00000160: 02d3 98bf 45bd a03f 27e6 7c3f 8da5 0340
00000170: 1900 823e b2ee a03f f242 1fbf 0311 493f
00000180: 506b 0b3f 8625 afbf 65bd 523e d86c 2740
00000190: 0d6d be3f 7887 91bf 5dce b9bf f4c1 c2be
000001a0: 6509 2cbf 4a2c 89be 6380 bcbe a60b 93bf
000001b0: 445a bfbe 120a 0740 5792 5e3e 2abe 5dbe
000001c0: 1ccc e9be 43b5 d93f 2bb3 dcbf ee29 afbf
000001d0: 6dc2 593f 7073 01bf dbe0 9dbf 29c6 06bf
000001e0: ed0f 883e 0812 953f 3ab1 793d 2f60 10bf
000001f0: c312 f0be 8650 08c0 189b 33bf bef5 ab3e
00000200: 4bdf 193f 0122 c6be bea0 f9be 0f1d 04bf
00000210: 8971 223f 56c3 1e40 fff5 27bf 778f edbe
00000220: 8f41 3b3f c649 193d ef76 8dbe 2a20 c03e
00000230: 6111 9a3f ff02 d7bf 815d f4be c5e4 f8bd
00000240: 6717 873f 43e3 043e 4a28 9abf 248a edbe
00000250: 22f0 0a3f 863c 9d3e 7c9e c2bc 6f8f 77bf
00000260: cb35 7b3f 50a4 25bf 45a6 0cbe 66fc b9bf
00000270: 7b91 3fbf ff7b 2ec0 0a87 acbd ce18 8dbf
00000280: ba01 4f40 c225 debf 2169 4ebf c57e 19bf
00000290: 11bd d33f c244 99bf 1e09 29c0 f5ad 77be
000002a0: 24ac ed3f cd18 64bf bffb 563f 353b a3bf
000002b0: 85b7 163e e300 1c3e 460f 493c a155 f3bf
000002c0: 5037 a4bc dd5a 2f40 acd2 a33f 2c3f 9dbf
000002d0: c4f9 5540 c7f9 15bf cdb5 913e 3479 46c0
000002e0: b8d0 1b3f fbfe 4e3f 6a5d 49bf 4f4e dcbf
000002f0: 40ec f6bd 81a3 f2bf da37 913f bd14 30bf
00000300: d9a1 153e a1cc 4bbf c514 92bf 972c 963d
00000310: a1dd f9bf ea6d 2840 ab50 a2be 65ac 3abf
00000320: f911 9a3e 8bb7 6fbf 8100 abbf ee5b b73e
00000330: a484 693f 6f44 7ec0 5041 80be 51b7 38bf
00000340: b077 0640 00ca 84bf 3945 9dbe dd6c d9bf
00000350: 7880 dd3e 48b5 8b3f b1a3 1cbf 5280 a5be
00000360: e37b 2dbe 9d72 c2bf 1151 673f 9207 cd3f
00000370: e6fb e73d 09d3 35c0 686f 993f faa8 5e3e
00000380: 4600 26c0 3414 ef3e 3fb4 41bf 1e14 c43f
00000390: c545 65bc bd2f fcbe 3e98 383e 75c8 91bf
000003a0: f268 023f a7f4 b5be 4c7e 95bf 2a5e 84be
000003b0: b1ba 13bf fcb4 d1bf bbf6 8f3e e17b 183f
000003c0: edb8 0dbf 1139 f6bd f74b b8bf 2f69 8ebf
000003d0: c8b1 38c0 20e4 e03f 7be0 2dbf 7f97 743f
000003e0: ff88 e2be 7bf0 e0be cbe2 9bbe 7523 2a40
000003f0: f997 83bd ad34 be3f 9e75 f9be 0b47 943f
2.7487054 -0.48661256 1.2059249 0.72938156 -1.2006874 -1.3996341 -0.39776337 -0.52133495
-3.7573388 0.888117 1.1666149 0.035282273 -0.028513897 1.0604206 1.2389879 0.062040865
-0.53559375 -2.4668937 1.1681598 0.92975134 1.542711 0.48962727 -2.4348357 -1.0079998
-1.4961191 2.3474479 0.5781746 0.9340837 -0.028251488 1.1434667 -1.1489037 0.66705656
2.155037 -0.22218093 -1.6632029 -0.41604084 -0.75292635 -1.8000401 -1.7361152 -1.0707818
0.46993664 -1.8267053 -0.72824365 0.34357265 -1.0057118 -0.35410792 -1.4862459 -0.19409548
-0.06492668 0.26312605 -0.21299474 -1.5184025 0.6962401 -1.2909191 -0.33120176 -0.17173925
1.2993089 -0.7905855 0.36086062 -0.6458445 -0.9846645 1.1735809 -1.9463049 0.18944848
-2.0267973 0.472 1.235704 0.29266733 -0.54350996 -1.5995482 0.7707522 -0.38468963
-1.5333843 1.2884381 0.09624429 0.010309574 -1.3671522 -0.36241317 -1.3067955 0.6835081
-0.5827432 0.92517775 0.47118345 0.6881097 -2.271562 -1.0328882 0.26341438 1.1803747
-1.1939394 1.255776 0.98788685 2.0569794 0.253907 1.2572844 -0.62211525 0.7854158
0.5446062 -1.3683326 0.20580061 2.6160183 1.487703 -1.1369467 -1.4516102 -0.380386
-0.67201835 -0.26791602 -0.368167 -1.148793 -0.37373555 2.1099896 0.21735512 -0.21654573
-0.45663536 1.7008442 -1.7242178 -1.3684671 0.85062295 -0.5056677 -1.2334245 -0.5264612
0.2657465 1.1646128 0.060960032 -0.56396765 -0.46889314 -2.1299148 -0.7015853 0.33585924
0.60106343 -0.38697818 -0.4875545 -0.5160684 0.6345449 2.4806724 -0.65609735 -0.46398517
0.7314691 0.03742387 -0.27629802 0.3752454 1.2036554 -1.6797789 -0.47727588 -0.12153009
1.0554017 0.12977318 -1.2043545 -0.46394455 0.54272664 0.30710238 -0.023757212 -0.9670324
0.98128957 -0.64703846 -0.13735302 -1.4530151 -0.7483136 -2.7263181 -0.08424194 -1.1023195
3.2344804 -1.7355273 -0.80629164 -0.5995906 1.6542073 -1.1974108 -2.6411815 -0.24187453
1.8568158 -0.89100343 0.83977884 -1.2752444 0.14718445 0.15234713 0.012271708 -1.9010507
-0.020045906 2.7399209 1.2798667 -1.2284904 3.3433695 -0.58584255 0.28459015 -3.1011477
0.60865355 0.8085782 -0.78658164 -1.7211398 -0.1205678 -1.8956147 1.134517 -0.68781644
0.14612521 -0.79609114 -1.1412588 0.073327236 -1.9520761 2.6317086 -0.3170217 -0.72919303
0.30091837 -0.9363944 -1.3359529 0.35812324 0.9121802 -3.9729269 -0.2504983 -0.7215472
2.1010551 -1.0374146 -0.30716875 -1.6986347 0.43262076 1.0914698 -0.61187273 -0.32324463
-0.1694179 -1.5191227 0.9035807 1.6017935 0.11327343 -2.8410056 1.1987123 0.21744147
-2.5937667 0.466951 -0.7566566 1.5318639 -0.013993685 -0.4925517 0.18026826 -1.13893
0.50941384 -0.35538217 -1.1679168 -0.2585309 -0.57706743 -1.6383357 0.28117928 0.59564024
-0.553603 -0.12022603 -1.4398183 -1.112585 -2.885851 1.7569618 -0.67920655 0.95543665
-0.44245145 -0.43933472 -0.30446467 2.6584141 -0.06425471 1.4859825 -0.48722547 1.158418

bias f4 [32]
00000000: 2af1 35be 3e90 0bbf cbb3 92bf 4cf2 f93c
00000010: 2d2f 823f 0cd5 803e 5d73 8dbd 1431 a4bd
00000020: 839e e7be 0f81 0ebf 265a 76be 8d41 acbe
00000030: 0866 233e d46f b9be c5a8 0b3f a1f9 e5be
00000040: be9a 8dbe f92c 9a3c 965d a2be 6d6c 0f3e
00000050: d315 debe 77c0 d3bb a3eb 1b3f 8179 03be
00000060: 2b42 743f 9bbb 1fbf aa6d 3d3f c524 8bbe
00000070: 1fe6 e6be 337b d4bf f1f6 afbc c186 b5bf
-0.17767778 -0.5451697 -1.1461118 0.030511044 1.0170647 0.25162542 -0.069067694 -0.080171734
-0.45238122 -0.5566568 -0.24057826 -0.3364376 0.1595689 -0.3621813 0.54554397 -0.44917014
-0.2765712 0.018820273 -0.31712025 0.14006205 -0.43376026 -0.0064621526 0.6090643 -0.12839319
0.95413464 -0.6239564 0.7399546 -0.2717649 -0.45097443 -1.6600097 -0.021480056 -1.4181749

weight f4 [1, 32]
00000000: 9421 8140 8712 3abf be8a 5dc0 f2ec 14c0
00000010: aa03 1040 a924 08c0 1aee aa40 93c5 17c0
00000020: cb19 e2c0 56db 16c0 6930 44c0 4e06 8040
00000030: 386a 83c0 cbb4 06c0 cd13 f63f 1698 6540
00000040: ee5d 37c0 0e4f ddbf 30b6 5ec0 a198 f63f
00000050: 87cb 5bc0 6630 7f40 088c e63f 227a 1f40
00000060: ff38 3240 ed63 53c0 629a 8740 f51e 2640
00000070: 6443 54c0 0f1d 8ec0 b783 05c0 a6e4 9fc0
4.035349 -0.7268452 -3.4615932 -2.326962 2.2502236 -2.1272376 5.341565 -2.371434
-7.0656486 -2.3571372 -3.0654547 4.0007696 -4.106716 -2.1047847 1.9224793 3.5874076
-2.865108 -1.728975 -3.4798698 1.9265329 -3.4342973 3.987329 1.8011484 2.4918294
2.7847288 -3.302974 4.2375956 2.5956395 -3.3166132 -4.441047 -2.0861642 -4.996661
