resources/actuator_nets/unitree_go2.pt (torch, 18037 bytes, 5 tensors)

weight f4 [32, 6]
00000000: 4aa6 783f 8b04 19bf cb08 9cbd 8fe1 8a40
00000010: 4ddd d73c e38d 563f 3c7d d7bf 8309 2ebf
00000020: 301e 1ebf c7fa 6cbe ee30 ef3d ca8b 77bd
00000030: 090d 5cbe 0be4 80bf d339 4440 279a 693f
00000040: 3219 74bf d3ef 1d3e 3579 44c0 4361 5bbc
00000050: 9047 c3bf c2e3 0bbd 5d64 b4bc ba47 bfbd
00000060: 2d4e a93f db0c 7f3f b435 4e3f 3c01 6a3c
00000070: db80 5a3e 8844 19be ba43 2cc0 6d12 733f
00000080: 0c66 aa3f b381 d5be 4884 433d 91c5 df3e
00000090: 447f e2bf 2b5a 70bf 28fc d03e f061 0fbe
000000a0: 4091 4b3e fbae b9bc 4166 5540 7dd6 89bf
000000b0: bcb7 28c0 5b8f c6be 4b03 c73e d8a4 64be
000000c0: 808c 67c0 99c5 4a40 c831 7a3f 114f 1ebe
000000d0: 6a25 833d 256f 27be 6587 1f40 9552 4ebf
000000e0: d04b cabf 0764 703f 73a4 91bf d8a6 09be
000000f0: d23c b4bf 4be9 cbbe 1625 40bf bff9 db3c
00000100: c06c 0fbe 11c2 0e3d d2f7 c53f 4664 dd3e
00000110: 2ab6 9f3f 00fd 90be 6aaf 6f3e 9350 7dbe
00000120: e2cc 193d 37ad bfbf 6108 9240 2f37 60be
00000130: 8798 543f c9bb bbbe 30c6 7140 226e 38c0
00000140: 7e40 ef3f b7bf 863d c1f8 a1be 8ed9 b53e
00000150: b6c2 0a3f 5b8c 85c0 e777 9e3f 7cb9 09bd
00000160: 7b82 a2be 2ca2 8b3e c18b f93e 5268 40c0
00000170: e37d 08bf 6ed7 853d aaa5 80be 4edf 0e3f
00000180: 6e3d 20c0 d2c6 053f dea6 933f 3462 7fbd
00000190: 41a9 a33f a9bb 893e c86f 4dc0 75bd 0e3f
000001a0: a369 5a40 8e5f 3a3c 3481 203f b088 c2be
000001b0: 7425 3dbf ee05 d2bf fed4 8f3f d7ec 093f
000001c0: 77fa 3fbe 08f3 503c 091c 27c0 691c e6bd
000001d0: 5bd0 cc40 56ab 093d 5aac 32bc bb69 3a3e
000001e0: 1781 d0bf b8cf 0abf 864b 4240 906d 99be
000001f0: c367 1d3f b149 a7be c73d 4b40 2519 8ec0
00000200: 5c44 0940 a886 f8bb 0e27 d13d 2337 dfbd
00000210: b56c d63e 9554 4940 5c20 72bf 6d1d 19bd
00000220: 03e0 85bc fc93 153e e4b4 a33f 912e 893e
00000230: e6d4 5ec0 e085 0b3f 88e7 903e 0106 96bd
00000240: a063 c3bf 271f 1a40 e998 c9be e95b d83f
00000250: 73af 64bf 6b8f b7bd 2a4a 4bc0 1be0 1e40
00000260: 92b1 ac3b 2491 a83e e0ca a6bb 01bd a83e
00000270: db92 1d40 876a 93c0 67aa 5e40 6d3e 71be
00000280: 8c9b b23e 6ed6 f73d 7298 c13f 9dd4 2340
00000290: 45cd 6340 20ef 083f 6e49 9a3e 2083 6bbd
000002a0: 3e37 9640 2ab9 8040 61d9 ab40 2dd5 143f
000002b0: 6f0e 513e 3b0c a0be e7f3 83c0 8f1d f440
000002c0: 55e1 40c0 a95e 1f3e eb9f 5fbc 3e6a 2fbc
000002d0: 724e 2c40 1323 36bf 26c4 7bc0 f40f dcbe
000002e0: 1ed8 d93d 60d3 9e3d 1354 efbe fac6 fdbf
000002f0: 5921 2b3f ed85 ecbd e82c d53c 52ee 8b3d
0.97128737 -0.5977256 -0.076188646 4.340034 0.026350642 0.8381025 -1.6835093 -0.67983264
-0.6176481 -0.23142539 0.116792545 -0.060436048 -0.21489348 -1.0069593 3.0660293 0.9125084
-0.95350945 0.15423517 -3.069898 -0.013389888 -1.5256214 -0.034152754 -0.022020513 -0.09339853
1.3226982 0.9962899 0.80550694 0.014282521 0.21338217 -0.14967549 -2.6916337 0.9494999
1.3312392 -0.41700515 0.047733575 0.4370542 -1.7695088 -0.93887585 0.4081738 -0.14002204
0.19879627 -0.022666445 3.334366 -1.0768582 -2.6362143 -0.38781247 0.388697 -0.22328508
-3.6179504 3.1683104 0.9773221 -0.15459849 0.064036205 -0.16350992 2.4926388 -0.8059476
-1.5804386 0.9390263 -1.1378311 -0.13442552 -1.4081061 -0.39826426 -0.7505659 0.026852487
-0.14006329 0.034853045 1.5466254 0.43240565 1.2477467 -0.28318024 0.23406759 -0.24737768
0.037548907 -1.4974736 4.563523 -0.21896051 0.8304524 -0.36666706 3.7777214 -2.881722
1.8691556 0.065795355 -0.31635097 0.35517544 0.54203355 -4.173383 1.2380341 -0.033624157
-0.31740174 0.27272165 0.48739436 -3.0063672 -0.5331709 0.065352306 -0.25126392 0.55809486
-2.5037494 0.522565 1.1535299 -0.062349513 1.2786027 0.26900986 -3.2099476 0.5575784
3.4126976 0.011375321 0.6269715 -0.3799491 -0.73885274 -1.640806 1.1236875 0.53877014
-0.18747889 0.012753256 -2.6110861 -0.112358876 6.400434 0.033610664 -0.01090535 0.18204395
-1.6289395 -0.54223204 3.0358596 -0.29966402 0.6148645 -0.3267341 3.1756456 -4.4405694
2.1447973 -0.0075844117 0.10212527 -0.10899188 0.41879812 3.1457875 -0.94580626 -0.03738158
-0.016342169 0.14607233 1.2789578 0.2679334 -3.4817443 0.5450115 0.28301644 -0.07325364
-1.5264778 2.4081514 -0.39374474 1.6903049 -0.89330214 -0.08962902 -3.1764016 2.4824283
0.0052701915 0.32923234 -0.0050901026 0.329567 2.4620883 -4.606754 3.4791505 -0.2355897
0.34884298 0.12101446 1.5124648 2.559852 3.5594037 0.53489876 0.30134147 -0.057498097
4.6942434 4.022603 5.3702855 0.5813778 0.20415662 -0.3125933 -4.123523 7.628608
-3.0137532 0.15563454 -0.013648967 -0.010706482 2.692288 -0.7114727 -3.933847 -0.4298092
0.10636924 0.0775516 -0.4674383 -1.9826348 0.6684776 -0.11548982 0.02602239 0.06832565

bias f4 [32]
00000000: 32c0 133e 3332 1240 12fe 99be fa8d 9bbf
00000010: 2b54 d5bf 3fc7 773f 46fd 08c0 2502 81bf
00000020: b7ba f93b ec27 f2be ecbd dfbf cd77 fa3f
00000030: bcd2 603f 73dc 093f a7bd 6dbf 65ff 393d
00000040: d6bc a33f cae3 0dbe 0384 223d c865 343e
00000050: 4988 17bf 71a6 d4bc bcbb 3bbf 7f4e 47bf
00000060: 7efc 953e b549 153f cd83 e8be 241f b23f
00000070: c856 be3e 6e51 43bd 352e d1be 4557 f1bf
0.14428785 2.284314 -0.30076653 -1.2152703 -1.6666311 0.967884 -2.1404586 -1.007878
0.007621135 -0.47296083 -1.7479835 1.956781 0.87821555 0.53852004 -0.9286751 0.04540958
1.2792003 -0.13856426 0.039676677 0.17616951 -0.5919233 -0.025958272 -0.73333335 -0.7785415
0.292942 0.58315593 -0.45413056 1.3915753 0.37175584 -0.04768508 -0.40855566 -1.8854758

weight f4 [32, 32]
00000000: 8960 34be 25a6 4abf 3b06 0e3e 38ae 523d
00000010: a08d 4e3f 63d1 363f c7a2 c3bf 1c80 23c0
00000020: a3bc 26bf f7ac 923f 06cd 2ebe fcec c83e
00000030: 983d 1c40 7ef7 99be 8102 aebf f4b1 b1bf
00000040: aa96 22bf f00f 36bf 3d37 c5bf 466d aebf
00000050: aa61 dbbf d676 75c0 c320 bf3f bb17 943f
00000060: 95e0 20be 4715 893e 6c0b 393e 6d29 e6bd
00000070: b415 da3f 72c0 353f 99ae 7dbf 160d 2ebf
00000080: 93c4 c9bf 5907 cdbf d257 09bf 7ee1 edbe
00000090: 63cb 0240 6718 953f 0668 7bbf a081 6140
000000a0: 1a20 a0bc d694 a2be 5fef 113b 261f 6cbf
000000b0: 7edf 20bf c728 ef3f eb4e 3640 5cf0 edbf
000000c0: 77d8 e0bf 85d0 ca3c 8660 413f 7405 9dbf
000000d0: efc2 0dbd fdd8 743e 4ffb 31c0 a9bd 643f
000000e0: 6b86 3abf aa88 c43f 7946 253f 2ac9 26bf
000000f0: 000c 5b3d 6d2b aa3f 1720 9fbe 2a13 1dbc
00000100: 79e1 3abf 6c57 5e3f bf28 9c3f d165 2ebf
00000110: 5819 62be dced 0bbf 2f22 8ebe 2451 8ebd
00000120: 4456 383f 9c55 63be 49ea 0240 956e 0d3f
00000130: 8984 c33e e0ea 533f 69f1 4a3f eb33 3a3f
00000140: 6ba5 dbbd 407a 873d 7ebe 6c3e 8033 4ebf
00000150: b8c2 c23f 214b 89bf 7d33 0dbf ab2d 103e
00000160: 3df6 df3e 7487 b1be 4eff d73e f62a 75be
00000170: 8edf edbe 3565 073e 10ff 70bf ea3d 363e
00000180: d3c0 cebe 9399 833e b421 26bc 4db6 a53f
00000190: 3cd4 99bf 95ec 583f 0ecc 5fbd 96b0 373f
000001a0: 8208 2e3f 60a8 993e 95f8 94be d13d 90bf
000001b0: eb32 f1be 1e86 c23e eab4 8fbf 0b8c 35bf
000001c0: 092f cfbe aa5e 84bf 3c9c be3f 7815 26be
000001d0: a321 58be ba46 aa3f 095c ec3e 64fb a6be
000001e0: fb54 4cbe 0343 923f c60d 413f 7048 b63e
000001f0: ae0b 50c0 1dcb 54bf 6927 56bf 7806 48bf
00000200: 2cdb 82be 6ef0 2140 7f43 5a3f c68d b03f
00000210: f716 00c0 e100 343f 1554 12bf d356 0f3d
00000220: bb83 2340 8fe9 e2bf a559 853d 39a0 c2be
00000230: 7362 9ebf c05e 68be a595 dc3f 1b39 ac3f
00000240: df4c c53e 66fe f73f a3e8 283f 7c24 1f3d
00000250: 1aca 463f bc73 c63f 0cc0 74bf 2c45 d6bd
00000260: c179 63bf f9e0 6abd 368a d6be 8481 64be
00000270: 5a40 0040 5f17 413e 3764 243e 3223 6fbe
00000280: 503e 82be 53a4 513f eafd 883f e977 7ebf
00000290: e312 1a3e 39b9 81bf 83e6 a4bc 1354 45bc
000002a0: cc6a c43e 1349 07bf 379b 13c0 ce99 4abe
000002b0: e41b db3d 611f ecbe d906 013c 103f 073e
000002c0: d56d d73e 6ce0 b2bf ed17 08be 6a33 5140
000002d0: 61cd a93e 637f aa3d 6680 5fbf e9e6 2c3f
000002e0: d78e 913e 7acb 30bf 6559 7a3f 409c 4d3e
000002f0: 7c99 b3bf 61f9 843f cfdc d43e b1e2 e5be
00000300: 97da 0ebe b381 f5be 1f56 b6bf 56b6 a9bf
00000310: 5d80 c5bd 99a4 f3be 873b af3f 3c51 8abe
00000320: 979e 81bf 63fd ea3a e6e3 9ebf 01ee 8bbd
00000330: cf96 dabf f8c0 aa3f dd73 883d 64e7 f03e
00000340: 41d2 7cbe d5e8 513f a5be 713f 09d3 93bf
00000350: 620a 523f 966a ed3f d145 4e3e 82cc 06bf
00000360: f1b8 5abf eb99 0cbf e066 143e a974 e5be
00000370: 3659 e13d f715 ab3f e519 0f3f 330a 4a3e
00000380: cbb6 38be 2cec 88bf 9f51 253f c6a3 8fbf
00000390: da37 aa3f 8ed4 4b3c e418 2abf 8a32 ae3f
000003a0: a84c 62bf 9671 0ebf 5620 2ebf c9ec 0340
000003b0: 84d5 13bf 2a79 a83f 6c63 433f 54e0 983e
000003c0: b9e2 303e 9870 b83f f46c acbf b555 d9bf
000003d0: 1c6e d23e 98db 8cc0 2522 9cbf 7643 94be
000003e0: 57de b13e 2c49 0bbf dcd7 97bf 43e1 7fbf
000003f0: 567b a23f c734 8140 358e 613f 5dd7 f6be
-0.1761495 -0.79159766 0.13869564 0.05143568 0.8068485 0.7141325 -1.5284051 -2.5546942
-0.65131587 1.1459035 -0.17070398 0.39243305 2.4412594 -0.30071634 -1.3594514 -1.3882432
-0.63511145 -0.7111807 -1.5407482 -1.3627098 -1.713918 -3.8353782 1.4931873 1.1569742
-0.15710671 0.26774046 0.18070763 -0.1123837 1.7037873 0.70996773 -0.9909454 -0.6798872
-1.5763115 -1.6017867 -0.5364963 -0.464611 2.0436637 1.1648072 -0.982056 3.5235367
-0.019546557 -0.31754178 0.002226792 -0.9223503 -0.6284102 1.8684319 2.8485668 -1.8588977
-1.756606 0.024757633 0.7553791 -1.2267289 -0.03460973 0.239109 -2.7809637 0.893519
-0.72861356 1.5354207 0.6456066 -0.651507 0.05347824 1.3294502 -0.3107917 -0.009587089
-0.73000294 0.86852145 1.2199935 -0.6812411 -0.2207998 -0.5465982 -0.27760455 -0.0694907
0.7200663 -0.22200626 2.0455496 0.5524686 0.38187054 0.82780266 0.7927461 0.7273547
-0.1072491 0.06615114 0.23119542 -0.8054733 1.5215673 -1.0726053 -0.5515669 0.14079921
0.43742552 -0.34673655 0.4218697 -0.2394217 -0.4645962 0.13222201 -0.94139194 0.17797056
-0.40381488 0.25703105 -0.010139871 1.2946259 -1.2017894 0.84735996 -0.05463796 0.71753824
0.6798173 0.30011272 -0.29095903 -1.1268865 -0.4710916 0.37992948 -1.1227086 -0.70916814
-0.40465572 -1.0341389 1.4891429 -0.16219127 -0.21106581 1.3302834 0.46163967 -0.3261367
-0.19954292 1.14267 0.7541164 0.3560214 -3.2507129 -0.83122426 -0.83653885 -0.7813487
-0.2555784 2.5302997 0.8525924 1.3793266 -2.0014017 0.7031384 -0.5715955 0.03499491
2.5549152 -1.7727526 0.06511239 -0.38012865 -1.2373794 -0.22692394 1.7233168 1.3454927
0.3853521 1.9374511 0.65979975 0.038853154 0.7765213 1.5504069 -0.9560554 -0.10462412
-0.88857657 -0.057343457 -0.41902322 -0.22315031 2.0039277 0.18856572 0.16053854 -0.2335327
-0.25438166 0.81891364 1.0702488 -0.9940172 0.15046267 -1.013465 -0.020129448 -0.012043971
0.3836273 -0.5284588 -2.3063486 -0.19785234 0.10698679 -0.4611769 0.007875168 0.1320765
0.42075983 -1.3974738 -0.13290377 3.268763 0.33164504 0.08325078 -0.87305295 0.6753984
0.2842929 -0.6906048 0.97792655 0.20079136 -1.4031215 1.0388604 0.41574714 -0.44899514
-0.13950573 -0.47950515 -1.4245032 -1.325877 -0.09643624 -0.47586516 1.3690041 -0.27015102
-1.0126523 0.0017928298 -1.2413299 -0.06832505 -1.7077273 1.3340139 0.06662724 0.47051537
-0.2468958 0.819959 0.94431525 -1.1548778 0.8204709 1.8548152 0.2014382 -0.52655804
-0.8543845 -0.5492236 0.14492369 -0.44815567 0.11003344 1.3366078 0.55898887 0.19730453
-0.1803848 -1.0697074 0.6457767 -1.1221855 1.3298295 0.012440814 -0.6644423 1.3609173
-0.8839822 -0.5564207 -0.6801809 2.0613272 -0.57747674 1.3161976 0.7632358 0.2985865
0.17273988 1.4409361 -1.347075 -1.6979281 0.41099632 -4.401806 -1.219792 -0.2895772
0.34739944 -0.54408526 -1.186275 -0.999531 1.2693889 4.0376925 0.88107616 -0.48211184

bias f4 [32]
00000000: 4809 a4be c5a7 17c0 6f93 b33e a0a0 b63f
00000010: e0b6 ac3f 5a31 cd3e 568d f0be de80 9ebf
00000020: 1002 29be d9dc 90bf 2b9c e0bf 55fa 9abf
00000030: 5d62 d83f 7d7d 80bf 0dec 443f 0675 0b3f
00000040: 6dcf 77bf f8fa b0bf 541d b8bf db1f 233f
00000050: aabe c9bf 183a 423e 66c2 d2be 1cf6 a8bf
00000060: f9d1 613e 44f6 aebd 0323 da3e 530b d53f
00000070: 6d7b 5fbf d28d 7fbf 764e cd3e f4b8 873f
-0.3203833 -2.3696148 0.3507342 1.4267769 1.3493309 0.40076715 -0.4698283 -1.2383077
-0.16504693 -1.1317397 -1.7547659 -1.2107645 1.6905018 -1.0038296 0.76922685 0.5447544
-0.9680088 -1.382659 -1.438395 0.6372048 -1.5761311 0.18967474 -0.4116394 -1.3200107
0.22052754 -0.08543065 0.42604837 1.6644081 -0.8729771 -0.99825776 0.40098923 1.0603318

weight f4 [1, 32]
00000000: 69c5 8ebf 8897 79c0 e4aa 573f 99bb a63f
00000010: c17b cc3f 65f4 e0bf c3a8 a5bf 9a2f c3bf
00000020: eeb3 853f a1f9 e23f 7ff4 de3f 839c bebf
00000030: 4d43 a83f 43e1 3440 0620 cfbf 12e1 b2bf
00000040: fef0 4a3f 5450 c8bf 2748 a9bf 6d9e 173f
00000050: 463a 72bf a1b6 edbf 15ae fcbf 872e 45bf
00000060: 1171 dabf 25e4 aa3f 5927 87bf 6d6a 983f
00000070: d950 eabf 7e6a 84bf 5730 b63f c09c 853f
-1.1153995 -3.8998737 0.84245133 1.3026 1.5975267 -1.7574583 -1.2942127 -1.5248902
1.0445535 1.7732431 1.7418364 -1.4891514 1.3145539 2.826249 -1.6181648 -1.3974936
0.79273975 -1.5649514 -1.3225144 0.59226114 -0.9462017 -1.8571359 -1.9740626 -0.7702412
-1.7065755 1.3350874 -1.0558883 1.1907479 -1.8305923 -1.0344999 1.4233502 1.0438461
